…
2023-08-29 18:30:45.809726: I tensorflow/compiler/xla/stream_executor/cuda/cuda_diagnostics.cc:199] libcuda reported version is: 495.29.5
2023-08-29 18:30:45.809744: I tensorflow/compiler/xla/stream_executor/cuda/cuda_diagnostics.cc:203] kernel reported version is: 495.29.5
2023-08-29 18:30:45.809749: I tensorflow/compiler/xla/stream_executor/cuda/cuda_diagnostics.cc:309] kernel version seems to match DSO: 495.29.5
Model: "small_NN"
_________________________________________________________________
 Layer (type)                Output Shape              Param #
=================================================================
 input_2 (InputLayer)        [(None, 500)]             0
 unit_normalization_1 (Unit  (None, 500)               0
 Normalization)
 dropout_3 (Dropout)         (None, 500)               0
 dense_3 (Dense)             (None, 256)               128256
 batch_normalization_1 (Bat  (None, 256)               1024
 chNormalization)
 dropout_4 (Dropout)         (None, 256)               0
 dense_4 (Dense)             (None, 128)               32896
 dropout_5 (Dropout)         (None, 128)               0
 dense_5 (Dense)             (None, 9)                 1161
=================================================================
Total params: 163337 (638.04 KB)
Trainable params: 162825 (636.04 KB)
Non-trainable params: 512 (2.00 KB)
_________________________________________________________________
Epoch 1/300
[34m[1mwandb[39m[22m: [33mWARNING[39m The save_model argument by default saves the model in the HDF5 format that cannot save custom objects like subclassed models and custom layers. This behavior will be deprecated in a future release in favor of the SavedModel format. Meanwhile, the HDF5 model is saved as W&B files and the SavedModel as W&B Artifacts.
…
