Model: "small_NN"
_________________________________________________________________
 Layer (type)                Output Shape              Param #
=================================================================
 input_1 (InputLayer)        [(None, 500)]             0
 unit_normalization (UnitNo  (None, 500)               0
 rmalization)
 dense (Dense)               (None, 56)                28056
 dropout (Dropout)           (None, 56)                0
 dense_1 (Dense)             (None, 56)                3192
 dropout_1 (Dropout)         (None, 56)                0
 dense_2 (Dense)             (None, 9)                 513
=================================================================
Total params: 31761 (124.07 KB)
Trainable params: 31761 (124.07 KB)
Non-trainable params: 0 (0.00 Byte)
_________________________________________________________________
Epoch 1/300
1/1 [==============================] - ETA: 0s - loss: 3.7551 - accuracy: 0.1250 - auc: 0.5398
/home/t.afanasyeva/mambaforge/envs/MATseq/lib/python3.10/site-packages/keras/src/engine/training.py:3000: UserWarning: You are saving your model as an HDF5 file via `model.save()`. This file format is considered legacy. We recommend using instead the native Keras format, e.g. `model.save('my_model.keras')`.
…
