Model: "small_NN"
_________________________________________________________________
 Layer (type)                Output Shape              Param #
=================================================================
 input_1 (InputLayer)        [(None, 500)]             0
 unit_normalization (UnitNo  (None, 500)               0
 rmalization)
 dense (Dense)               (None, 56)                28056
 dropout (Dropout)           (None, 56)                0
 dense_1 (Dense)             (None, 56)                3192
 dropout_1 (Dropout)         (None, 56)                0
 dense_2 (Dense)             (None, 9)                 513
=================================================================
Total params: 31761 (124.07 KB)
Trainable params: 31761 (124.07 KB)
Non-trainable params: 0 (0.00 Byte)
_________________________________________________________________
Epoch 1/300