Model: "small_NN"
_________________________________________________________________
 Layer (type)                Output Shape              Param #
=================================================================
 unit_normalization_7 (UnitN  (32, 9)                  0
 ormalization)
 dense_21 (Dense)            (32, 8)                   80
 activation_14 (Activation)  (32, 8)                   0
 dense_22 (Dense)            (32, 8)                   72
 activation_15 (Activation)  (32, 8)                   0
 dropout_7 (Dropout)         (32, 8)                   0
 dense_23 (Dense)            (32, 9)                   81
=================================================================
Total params: 233
Trainable params: 233
Non-trainable params: 0
_________________________________________________________________
[34m[1mwandb[39m[22m: [33mWARNING[39m The save_model argument by default saves the model in the HDF5 format that cannot save custom objects like subclassed models and custom layers. This behavior will be deprecated in a future release in favor of the SavedModel format. Meanwhile, the HDF5 model is saved as W&B files and the SavedModel as W&B Artifacts.
Epoch 1/100
Model: "small_NN"
_________________________________________________________________
 Layer (type)                Output Shape              Param #
=================================================================
 unit_normalization_8 (UnitN  (32, 9)                  0
 ormalization)
 dense_24 (Dense)            (32, 8)                   80
 activation_16 (Activation)  (32, 8)                   0
 dense_25 (Dense)            (32, 8)                   72
 activation_17 (Activation)  (32, 8)                   0
 dropout_8 (Dropout)         (32, 8)                   0
 dense_26 (Dense)            (32, 9)                   81
=================================================================
Total params: 233
Trainable params: 233
Non-trainable params: 0
_________________________________________________________________
Epoch 1/100
Epoch 1/100
Epoch 1/100
[34m[1mwandb[39m[22m: [33mWARNING[39m wandb.run.join() is deprecated, please use wandb.run.finish().