
2023-08-29 16:01:30.175799: I tensorflow/core/common_runtime/gpu/gpu_device.cc:1639] Created device /job:localhost/replica:0/task:0/device:GPU:0 with 13775 MB memory:  -> device: 0, name: Tesla T4, pci bus id: 0000:3b:00.0, compute capability: 7.5
Model: "small_NN"
_________________________________________________________________
 Layer (type)                Output Shape              Param #
=================================================================
 input_1 (InputLayer)        [(None, 500)]             0
 unit_normalization (UnitNo  (None, 500)               0
 rmalization)
 dropout (Dropout)           (None, 500)               0
 dense (Dense)               (None, 256)               128256
 batch_normalization (Batch  (None, 256)               1024
 Normalization)
 dropout_1 (Dropout)         (None, 256)               0
 dense_1 (Dense)             (None, 128)               32896
 dropout_2 (Dropout)         (None, 128)               0
 dense_2 (Dense)             (None, 9)                 1161
=================================================================
Total params: 163337 (638.04 KB)
Trainable params: 162825 (636.04 KB)
Non-trainable params: 512 (2.00 KB)
_________________________________________________________________
Model: "small_NN"
_________________________________________________________________
 Layer (type)                Output Shape              Param #
=================================================================
 input_2 (InputLayer)        [(None, 500)]             0
 unit_normalization_1 (Unit  (None, 500)               0
 Normalization)
 dropout_3 (Dropout)         (None, 500)               0
 dense_3 (Dense)             (None, 256)               128256
 batch_normalization_1 (Bat  (None, 256)               1024
 chNormalization)
 dropout_4 (Dropout)         (None, 256)               0
 dense_4 (Dense)             (None, 128)               32896
 dropout_5 (Dropout)         (None, 128)               0
 dense_5 (Dense)             (None, 9)                 1161
=================================================================
Total params: 163337 (638.04 KB)
Trainable params: 162825 (636.04 KB)
Non-trainable params: 512 (2.00 KB)
_________________________________________________________________
[34m[1mwandb[39m[22m: [33mWARNING[39m The save_model argument by default saves the model in the HDF5 format that cannot save custom objects like subclassed models and custom layers. This behavior will be deprecated in a future release in favor of the SavedModel format. Meanwhile, the HDF5 model is saved as W&B files and the SavedModel as W&B Artifacts.
…
