…
/home/t.afanasyeva/mambaforge/envs/MATseq/lib/python3.10/site-packages/keras/src/engine/training.py:3000: UserWarning: You are saving your model as an HDF5 file via `model.save()`. This file format is considered legacy. We recommend using instead the native Keras format, e.g. `model.save('my_model.keras')`.
  saving_api.save_model(
Model: "small_NN"
_________________________________________________________________
 Layer (type)                Output Shape              Param #
=================================================================
 input_1 (InputLayer)        [(None, 500)]             0
 unit_normalization (UnitNo  (None, 500)               0
 rmalization)
 dense (Dense)               (None, 16)                8016
 dropout (Dropout)           (None, 16)                0
 dense_1 (Dense)             (None, 16)                272
 dropout_1 (Dropout)         (None, 16)                0
 dense_2 (Dense)             (None, 9)                 153
=================================================================
Total params: 8441 (32.97 KB)
Trainable params: 8441 (32.97 KB)
Non-trainable params: 0 (0.00 Byte)
_________________________________________________________________
Epoch 1/300
1/1 [==============================] - ETA: 0s - loss: 2.6667 - accuracy: 0.0938 - auc: 0.4876
INFO:tensorflow:Assets written to: /home/t.afanasyeva/MATseq/notebooks/wandb/run-20230829_190534-1t1qga87/files/model-best/assets
…
