Model: "small_NN"
_________________________________________________________________
 Layer (type)                Output Shape              Param #
=================================================================
 input_1 (InputLayer)        [(None, 500)]             0
 unit_normalization (UnitNo  (None, 500)               0
 rmalization)
 dense (Dense)               (None, 24)                12024
 dropout (Dropout)           (None, 24)                0
 dense_1 (Dense)             (None, 24)                600
 dropout_1 (Dropout)         (None, 24)                0
 dense_2 (Dense)             (None, 9)                 225
=================================================================
Total params: 12849 (50.19 KB)
Trainable params: 12849 (50.19 KB)
Non-trainable params: 0 (0.00 Byte)
_________________________________________________________________
Epoch 1/300
1/1 [==============================] - ETA: 0s - loss: 2.8820 - accuracy: 0.1562 - auc: 0.5483
2023-08-29 19:27:10.264646: E tensorflow/compiler/xla/stream_executor/cuda/cuda_driver.cc:268] failed call to cuInit: CUDA_ERROR_NO_DEVICE: no CUDA-capable device is detected
…
