Model: "small_NN"
_________________________________________________________________
 Layer (type)                Output Shape              Param #
=================================================================
 unit_normalization_5 (UnitN  (32, 9)                  0
 ormalization)
 dense_15 (Dense)            (32, 8)                   80
 activation_10 (Activation)  (32, 8)                   0
 dense_16 (Dense)            (32, 8)                   72
 activation_11 (Activation)  (32, 8)                   0
 dropout_5 (Dropout)         (32, 8)                   0
 dense_17 (Dense)            (32, 9)                   81
=================================================================
Total params: 233
Trainable params: 233
Non-trainable params: 0
_________________________________________________________________
Model: "small_NN"
_________________________________________________________________
 Layer (type)                Output Shape              Param #
=================================================================
 unit_normalization_6 (UnitN  (32, 9)                  0
 ormalization)
 dense_18 (Dense)            (32, 8)                   80
 activation_12 (Activation)  (32, 8)                   0
 dense_19 (Dense)            (32, 8)                   72
 activation_13 (Activation)  (32, 8)                   0
 dropout_6 (Dropout)         (32, 8)                   0
 dense_20 (Dense)            (32, 9)                   81
=================================================================
Total params: 233
Trainable params: 233
Non-trainable params: 0
_________________________________________________________________