Model: "small_NN"
_________________________________________________________________
 Layer (type)                Output Shape              Param #
=================================================================
 unit_normalization (UnitNor  (32, 9)                  0
 malization)
 dense (Dense)               (32, 8)                   80
 activation (Activation)     (32, 8)                   0
 dense_1 (Dense)             (32, 8)                   72
 activation_1 (Activation)   (32, 8)                   0
 dropout (Dropout)           (32, 8)                   0
 dense_2 (Dense)             (32, 9)                   81
=================================================================
Total params: 233
Trainable params: 233
Non-trainable params: 0
_________________________________________________________________
Model: "small_NN"
_________________________________________________________________
 Layer (type)                Output Shape              Param #
=================================================================
 input_2 (InputLayer)        [(None, 500)]             0
 unit_normalization_3 (UnitN  (None, 500)              0
 ormalization)
 dropout_4 (Dropout)         (None, 500)               0
 dense_6 (Dense)             (None, 256)               128256
 batch_normalization_1 (Batc  (None, 256)              1024
 hNormalization)
 dropout_5 (Dropout)         (None, 256)               0
 dense_7 (Dense)             (None, 128)               32896
 dropout_6 (Dropout)         (None, 128)               0
 dense_8 (Dense)             (None, 9)                 1161
=================================================================
Total params: 163,337
Trainable params: 162,825
Non-trainable params: 512
_________________________________________________________________
Model: "small_NN"
_________________________________________________________________
 Layer (type)                Output Shape              Param #
=================================================================
 input_3 (InputLayer)        [(None, 500)]             0
 unit_normalization_4 (UnitN  (None, 500)              0
 ormalization)
 dropout_7 (Dropout)         (None, 500)               0
 dense_9 (Dense)             (None, 256)               128256
 batch_normalization_2 (Batc  (None, 256)              1024
 hNormalization)
 dropout_8 (Dropout)         (None, 256)               0
 dense_10 (Dense)            (None, 128)               32896
 dropout_9 (Dropout)         (None, 128)               0
 dense_11 (Dense)            (None, 9)                 1161
=================================================================
Total params: 163,337
Trainable params: 162,825
Non-trainable params: 512
_________________________________________________________________
Epoch 1/100
1/1 [==============================] - ETA: 0s - loss: 7.6267 - accuracy: 0.0312 - auc_1: 0.4661INFO:tensorflow:Assets written to: /home/t.afanasyeva/MATseq/notebooks/wandb/run-20230829_152453-947ls6of/files/model-best/assets
…
1/1 [==============================] - ETA: 0s - loss: 1.6470 - accuracy: 1.0000 - auc_1: 1.0000INFO:tensorflow:Assets written to: /home/t.afanasyeva/MATseq/notebooks/wandb/run-20230829_152453-947ls6of/files/model-best/assets
1/1 [==============================] - 1s 1s/step - loss: 1.6470 - accuracy: 1.0000 - auc_1: 1.0000 - val_loss: 3.4401 - val_accuracy: 0.6667 - val_auc_1: 0.9198
Model: "small_NN"
_________________________________________________________________
 Layer (type)                Output Shape              Param #
=================================================================
 input_4 (InputLayer)        [(None, 500)]             0
 unit_normalization_5 (UnitN  (None, 500)              0
 ormalization)
 dropout_10 (Dropout)        (None, 500)               0
 dense_12 (Dense)            (None, 256)               128256
 batch_normalization_3 (Batc  (None, 256)              1024
 hNormalization)
 dropout_11 (Dropout)        (None, 256)               0
 dense_13 (Dense)            (None, 128)               32896
 dropout_12 (Dropout)        (None, 128)               0
 dense_14 (Dense)            (None, 9)                 1161
=================================================================
Total params: 163,337
Trainable params: 162,825
Non-trainable params: 512
_________________________________________________________________
Epoch 1/300
1/1 [==============================] - 1s 905ms/step - loss: 7.4841 - accuracy: 0.0625 - auc_2: 0.5485 - val_loss: 7.2443 - val_accuracy: 0.2222 - val_auc_2: 0.6898
Epoch 2/300
1/1 [==============================] - 0s 40ms/step - loss: 7.1787 - accuracy: 0.2500 - auc_2: 0.6696 - val_loss: 7.2042 - val_accuracy: 0.2222 - val_auc_2: 0.6790
…
