Model: "small_NN"
_________________________________________________________________
 Layer (type)                Output Shape              Param #
=================================================================
 input_2 (InputLayer)        [(None, 500)]             0
 unit_normalization_1 (Unit  (None, 500)               0
 Normalization)
 dense_3 (Dense)             (None, 24)                12024
 dropout_2 (Dropout)         (None, 24)                0
 dense_4 (Dense)             (None, 24)                600
 dropout_3 (Dropout)         (None, 24)                0
 dense_5 (Dense)             (None, 9)                 225
=================================================================
Total params: 12849 (50.19 KB)
Trainable params: 12849 (50.19 KB)
Non-trainable params: 0 (0.00 Byte)
_________________________________________________________________
Epoch 1/300
1/1 [==============================] - ETA: 0s - loss: 2.9030 - accuracy: 0.1250 - auc_1: 0.4213INFO:tensorflow:Assets written to: /home/t.afanasyeva/MATseq/notebooks/wandb/run-20230829_191012-5j8uyf8r/files/model-best/assets
…
