Model: "small_NN"
_________________________________________________________________
 Layer (type)                Output Shape              Param #
=================================================================
 input_1 (InputLayer)        [(None, 500)]             0
 unit_normalization (UnitNo  (None, 500)               0
 rmalization)
 dropout (Dropout)           (None, 500)               0
 dense (Dense)               (None, 256)               128256
 batch_normalization (Batch  (None, 256)               1024
 Normalization)
 dropout_1 (Dropout)         (None, 256)               0
 dense_1 (Dense)             (None, 128)               32896
 dropout_2 (Dropout)         (None, 128)               0
 dense_2 (Dense)             (None, 9)                 1161
=================================================================
Total params: 163337 (638.04 KB)
Trainable params: 162825 (636.04 KB)
Non-trainable params: 512 (2.00 KB)
_________________________________________________________________
Epoch 1/300
1/1 [==============================] - ETA: 0s - loss: 7.4073 - accuracy: 0.1250 - auc: 0.5538
[34m[1mwandb[39m[22m: [33mWARNING[39m The save_m
…
