Model: "small_NN"
_________________________________________________________________
 Layer (type)                Output Shape              Param #
=================================================================
 input_3 (InputLayer)        [(None, 500)]             0
 unit_normalization_2 (Unit  (None, 500)               0
 Normalization)
 dropout_6 (Dropout)         (None, 500)               0
 dense_6 (Dense)             (None, 256)               128256
 batch_normalization_2 (Bat  (None, 256)               1024
 chNormalization)
 dropout_7 (Dropout)         (None, 256)               0
 dense_7 (Dense)             (None, 128)               32896
 dropout_8 (Dropout)         (None, 128)               0
 dense_8 (Dense)             (None, 9)                 1161
=================================================================
Total params: 163337 (638.04 KB)
Trainable params: 162825 (636.04 KB)
Non-trainable params: 512 (2.00 KB)
_________________________________________________________________
Epoch 1/300
Model: "small_NN"
_________________________________________________________________
 Layer (type)                Output Shape              Param #
=================================================================
 input_4 (InputLayer)        [(None, 500)]             0
 unit_normalization_3 (Unit  (None, 500)               0
 Normalization)
 dropout_9 (Dropout)         (None, 500)               0
 dense_9 (Dense)             (None, 256)               128256
 batch_normalization_3 (Bat  (None, 256)               1024
 chNormalization)
 dropout_10 (Dropout)        (None, 256)               0
 dense_10 (Dense)            (None, 128)               32896
 dropout_11 (Dropout)        (None, 128)               0
 dense_11 (Dense)            (None, 9)                 1161
=================================================================
Total params: 163337 (638.04 KB)
Trainable params: 162825 (636.04 KB)
Non-trainable params: 512 (2.00 KB)
_________________________________________________________________
Epoch 1/300
Epoch 1/300
Epoch 1/300
Model: "small_NN"
_________________________________________________________________
 Layer (type)                Output Shape              Param #
=================================================================
 input_6 (InputLayer)        [(None, 500)]             0
 unit_normalization_5 (Unit  (None, 500)               0
 Normalization)
 dropout_15 (Dropout)        (None, 500)               0
 dense_15 (Dense)            (None, 256)               128256
 batch_normalization_5 (Bat  (None, 256)               1024
 chNormalization)
 dropout_16 (Dropout)        (None, 256)               0
 dense_16 (Dense)            (None, 128)               32896
 dropout_17 (Dropout)        (None, 128)               0
 dense_17 (Dense)            (None, 9)                 1161
=================================================================
Total params: 163337 (638.04 KB)
Trainable params: 162825 (636.04 KB)
Non-trainable params: 512 (2.00 KB)
_________________________________________________________________
Epoch 1/300
Epoch 1/300